results/BlackFriday.pth (torch_old, 265118 bytes, 50 tensors)

layer1.0.weight f8 [24, 11]
00000000: 8c36 689e 4863 c1bf 5ca7 48e1 64b5 9d3f
00000010: 9447 4ed5 d0d2 cdbf 59cf 0281 4844 94bf
00000020: 2839 cdca 13e4 a13f 2394 93ef d90c bf3f
00000030: e9fe 33e8 044a b3bf 7531 1c09 c612 c7bf
00000040: 190d af38 f545 c13f 5ea4 774b 6077 c43f
00000050: 659e fe31 ad9d c5bf 2917 d1e9 39e0 c13f
00000060: 7ff0 37b8 3b3d 98bf 7fc0 6bd3 1114 ca3f
00000070: 5df7 909a 8ae5 c63f 8936 206b 6e81 903f
00000080: f4d9 61e3 a424 afbf 50e0 abe1 0115 ccbf
00000090: 6e97 4f74 d2fd d53f 095f 7345 8e3e bbbf
000000a0: 4266 cfaa 2ffa b2bf 93ab 29a9 604b c9bf
000000b0: 5aa2 888f 7544 c53f 3f0c cd86 8304 d0bf
000000c0: fd71 d5e9 4a7c d33f 9625 d150 298b b2bf
000000d0: b011 f866 b82b 9bbf 21ae 9db3 d6da adbf
000000e0: 38c7 6f24 cf0a 81bf 7c5f ff94 c2c1 d2bf
000000f0: 66d9 c476 6e75 c3bf 370c c622 f36a d1bf
00000100: cc83 2c97 e15f d1bf 16b2 3cea 1194 c3bf
00000110: 722a 8c21 4b5a d13f 43e1 1fae 0206 d23f
00000120: d201 729d bc23 c73f 79fb 9af3 89d6 ca3f
00000130: 5ba8 92c5 6232 c33f 59a6 f5fa 736c 95bf
00000140: f6e2 236a f9c9 c0bf 4e7f 0213 4b78 cfbf
00000150: 2369 a5bf c6ba cbbf 3ed7 a38e 18b7 c5bf
00000160: 2d05 3753 bed6 c0bf 3774 ba0f 095a c13f
00000170: 69a4 01f7 9da5 c6bf 8449 b7bf f8a0 a8bf
00000180: 9929 9cc5 da0f a83f 167e 1e4d bd17 d93f
00000190: 9fa4 ee23 48c7 ce3f 36bb bc2e 3d49 c53f
000001a0: 571f 3488 c432 c13f 1950 ffdf 0165 9cbf
000001b0: 90c2 a712 6ad0 d1bf 0d6a 6e4a 6858 b23f
000001c0: 67cf 5d10 92a5 c43f 8839 19cc c836 a6bf
000001d0: 3446 60e3 54f8 a8bf d107 f527 70b2 c43f
000001e0: 4b27 f157 7b44 d93f 9b6c 80be 6047 bb3f
000001f0: 5e9f 0a72 f94a c53f a4a0 765e 59f5 683f
00000200: 13e9 d0c0 40a7 c3bf bf39 4605 a05f c23f
00000210: 545a 5b22 69ee b7bf 9a5d fe32 8a36 c13f
00000220: a232 4cc8 1bf6 c5bf 0186 06ef 30de c93f
00000230: fb48 6fcc bcdc a43f 1782 7d8a 82b5 95bf
00000240: 4538 83bb c79c c8bf b7ad d446 0356 c13f
00000250: f300 69de 5ce4 c9bf e194 7706 8912 cdbf
00000260: 02b4 aa82 9cb5 c0bf 84c9 a447 d71c afbf
00000270: b831 d7ac 7a66 a53f 4061 f383 dc2a 96bf
00000280: 600d 8a21 4f79 a7bf ffd8 a28e fc54 4bbf
00000290: 8ef3 0f29 6993 d5bf a8db 1c3a b4fa c43f
000002a0: 609b 847b cfc6 b33f 62c9 6101 a322 b4bf
000002b0: c7c6 dedf 0621 b0bf 3020 5854 5174 bdbf
000002c0: 421f 1b24 3528 c4bf 7dd6 737f 2334 99bf
000002d0: e7df 80ff 9e9b 86bf ed55 13df 3019 b43f
000002e0: 1e6f 2b29 4429 c0bf d1fe 327e b4d6 c9bf
000002f0: bb23 b3bb 64ce a0bf e382 8296 523c cf3f
00000300: 3346 62eb f3ea b2bf 5fd0 54fb d563 cb3f
00000310: adec f0a1 2c5b bcbf d97d fe89 3b5a b83f
00000320: cdad 5098 8e66 c4bf 5a6a ece0 727a c43f
00000330: 0552 17d8 bf06 8cbf b62d e480 626a b7bf
00000340: 8500 1d85 430d dd3f 1eab 7029 90cf c4bf
00000350: 196f 647d d2b4 a3bf a6e9 1119 82bd ba3f
00000360: 86cc 3d28 59c6 c23f 5b65 c1b6 ec25 d0bf
00000370: c784 6fc3 2149 ccbf 2849 8269 040d 6abf
00000380: 8534 9072 0185 d0bf 44dd 61cc c5cf a33f
00000390: 16e6 4a43 06b6 c5bf fc63 aef1 eb3c b5bf
000003a0: d66b d567 bc33 d03f 140d 68fe e862 d0bf
000003b0: 0704 8d6c c128 c7bf a305 77f5 c9d5 b03f
000003c0: 285b 422d e011 bdbf b2a9 709a 2976 7dbf
000003d0: 9a69 a48c 7de9 b5bf 4dc2 57a0 0b55 a5bf
000003e0: 6cfb 774a 287f a53f 0843 ab43 b5e1 adbf
000003f0: 5d72 726a 95eb d93f af9c 4cee a1e7 b3bf
00000400: d6ee 28a2 22f6 b3bf c50f df76 3bc5 cbbf
00000410: 6a21 ec6e 05cc b6bf 64ec 873b 789f c33f
00000420: 5063 7ee0 92d3 903f 96cc aec0 3646 7bbf
00000430: f4ab e75a 2db8 453f 71c7 0b90 82cf 753f
00000440: 0bb8 5df5 2e31 613f 682e 332a 60b3 d43f
00000450: 05b5 13e6 99ae c23f 897e 63b0 4e68 b33f
00000460: 97b6 75ab ce2e c1bf 87fd 4615 8321 c0bf
00000470: 8fe1 4c4a f47b a33f 69db 6722 4554 a1bf
00000480: b366 db34 72a7 c23f a3d6 acda 9435 c43f
00000490: 3392 9452 ee38 c53f 0363 0073 2e30 8fbf
000004a0: c61f 77d5 11a5 d2bf b184 5865 2320 ccbf
000004b0: 00b0 db1a e8dd c2bf 5d99 1d35 ba12 b9bf
000004c0: 4926 2610 66e5 aabf 1001 2213 7c4f ca3f
000004d0: 7e6b 88b2 99e1 c0bf 4291 762f 0eed c1bf
000004e0: beac 26ab 731a b13f dd56 8f6e af8b b83f
000004f0: 4aff fb07 1664 b23f 2e9f ed4b 9089 c0bf
00000500: 6453 0436 c5c4 b7bf 78a8 e7e6 d3d7 c63f
00000510: 4936 afd4 e363 d0bf 7c8b 2b6b f35e d3bf
00000520: 3263 d31f 4ea8 d33f 41c3 10f7 459e c0bf
00000530: 9d55 46d7 b20b b83f 196d cdb1 1d6e 833f
00000540: ac81 7fff 52e7 59bf 204c 789c 088a 993f
00000550: f52c 1a90 b472 cebf 0901 e828 3c1f c7bf
00000560: c14e 47a1 cf55 d03f 87d9 18d9 272f ca3f
00000570: d412 6215 6934 c73f 34ac c184 bbd4 c63f
00000580: 3fb2 9ff1 be76 b13f ea7c e2bf 7228 a53f
00000590: a7e8 d6df 994f b2bf 7698 6435 7c50 77bf
000005a0: 4401 1a5c 84bb b53f d686 9302 5361 d9bf
000005b0: 1866 1732 0785 993f cf19 bdc9 a532 a9bf
000005c0: 368f 5c75 2663 ae3f 694d 067a 61c7 b3bf
000005d0: f746 3ce7 eb36 b43f fcdc 8505 0f04 823f
000005e0: 4e20 2cea 84cb cbbf 6564 ce3f 4098 a5bf
000005f0: 114c 4748 f1a9 b13f 93b9 8da3 eb7f c7bf
00000600: df15 bc9e 9c0c ccbf 9091 c21a d4c1 c5bf
00000610: fb34 d53f cc21 d1bf fefd b04a 0c0e c2bf
00000620: fb35 f014 4897 b63f 3eba 4367 5e8b a6bf
00000630: 67f4 0559 7e1b b93f 99d4 61f3 7c75 963f
00000640: 31b5 eaa4 cb7a b83f 075b b5ab 4f0c c93f
00000650: 037c 0b74 b9cc bd3f ac0a 001f 678e cfbf
00000660: 5193 c699 8541 cfbf 2da1 1976 0838 a5bf
00000670: 0407 2102 9fd7 b7bf 1bd1 6b3c 5ae9 c83f
00000680: 0748 cc4f 3a6a cdbf 0e40 6857 7628 b6bf
00000690: c964 24a1 c709 c7bf 3e5f cb43 ae0f c13f
000006a0: 13c0 3a4b f7ee cc3f b5e6 158a e76f bbbf
000006b0: fb8d 3fad 349e d3bf 2c7b 7831 b7e0 b03f
000006c0: e2ed b2b8 aaa8 cdbf 8c0d 7c32 4211 c4bf
000006d0: 3be6 f147 3e0c c2bf eff7 0d82 3a2b c4bf
000006e0: 7d10 2ec6 b566 c6bf 5735 5c54 27a2 c43f
000006f0: ca43 e9e9 a1cb cdbf 2514 a185 c596 b8bf
00000700: 0c42 0e94 705a b63f e6a0 7a98 c582 cb3f
00000710: 47a9 5d62 985b 9f3f 9c8f bb8d b90a aebf
00000720: cfd7 9cea 5469 a73f d7d0 f1ad ceca c9bf
00000730: d74d a4dc b0b0 ca3f 4eba 17ed d2c0 ca3f
00000740: a1d9 7cce 40ed cdbf 0ac4 e1ba 4ecc b33f
00000750: 9201 95b3 703e 81bf 6d99 cb19 85bc a6bf
00000760: 7b02 b8c6 7d0d 643f c09a 8e0d 5d84 d43f
00000770: 17ea 84c5 2877 c93f 1487 137e 0a91 9b3f
00000780: 26b8 b9a7 74fe b5bf ce29 aeeb 95a2 c3bf
00000790: d75e ffe5 d539 ca3f f5b6 5b5d 1dd0 b63f
000007a0: e060 bc7f 85e3 d0bf 958c f756 4930 c9bf
000007b0: 5fcc 5ef2 d237 cc3f d399 7506 12c2 86bf
000007c0: fe9e 551b 623e b9bf 71e9 227b 192b d6bf
000007d0: bbad 3e6f acea d03f c2e0 04f8 f18a c2bf
000007e0: 3ff8 f5af ab18 cd3f 1822 a828 669d c93f
000007f0: 4833 7a29 cb5f c3bf f12b 2689 f5fe ca3f
-0.13584239706726853 0.029012275934440765 -0.23299608626672053 -0.019791729807095624 0.03494321680647011 0.1212898454574121 -0.07534819287320328 -0.18026042408781576
0.13494744556201324 0.15989307103089606 -0.16887440625326913 0.13965534130891769 -0.023671086424642326 0.20373747657095362 0.17888004824811335 0.01611874131054106
-0.06082644725477229 -0.21939109343634522 0.34361707075583225 -0.10642327495167704 -0.07413003845376756 -0.1976128412237271 0.16615170963747766 -0.250275499002047
0.30446122012452276 -0.07243593428679271 -0.026533967289667337 -0.05831023161485072 -0.008321398066957295 -0.29307617712537826 -0.15202122496857412 -0.2721526946626826
-0.27147712481570063 -0.15295623719556833 0.2711360766994978 0.2816168499407647 0.18077809989701038 0.20967220682902246 0.14997515341866827 -0.020921528045994318
-0.13116376574159688 -0.2458585589238233 -0.21663746221276722 -0.16965014424175168 -0.1315534502337327 0.13556016223893305 -0.17692923127040963 -0.04810311641962797
0.046995960829082147 0.3920739415279696 0.2404565978479569 0.16629757673350704 0.13436180735174716 -0.02772906236334913 -0.27834560224349847 0.07166148965044546
0.1613028125681197 -0.04338672152936157 -0.04876961970888907 0.16169549895317784 0.39480479801260476 0.1065578904239594 0.16635053699905716 0.0030466790664896593
-0.1535416547283793 0.14354324586424913 -0.09348160828390323 0.13447692384646076 -0.1715731361404283 0.2020932356945622 0.040746593432816135 -0.021200217917227784
-0.19228455215346876 0.13543740232976884 -0.2022815786349451 -0.22712815109040377 -0.1305423391362695 -0.06076691388661273 0.04179747924681315 -0.021647878221160655
-0.04584739002623439 -0.0008341057957952646 -0.337122240161812 0.16390087926421626 0.07725235715461798 -0.07865351470699047 -0.06300394979077871 -0.11505611714540076
-0.15747703803048735 -0.024612955717165697 -0.011039011165948366 0.07850938268833092 -0.1262593461059333 -0.2018647781569514 -0.0328246573568047 0.2440283999358349
-0.07389759537388656 0.2139842488483081 -0.11076621011391082 0.09512683981892368 -0.15937979161513596 0.15998683912842432 -0.013684748441769487 -0.09146705290566257
0.453934555047461 -0.16258432410662577 -0.03848893910091373 0.10445416557369089 0.1466781088343831 -0.2523147377701968 -0.22098180811648246 -0.0031800352263157312
-0.2581180208952179 0.03869455451870832 -0.16961744581003363 -0.08296084070606463 0.2531577123642682 -0.25603699535732116 -0.18093126106580845 0.06576215975566994
-0.11355401139222165 -0.0071927666786372624 -0.08559403117798184 -0.041664470027062174 0.04198575886765962 -0.058362640867590854 0.4050038852235838 -0.07775318210461778
-0.07797447642308994 -0.21695655159248708 -0.08905061681810414 0.15330412775788027 0.01643208975983451 -0.00665875804672846 0.0006628247700154453 0.005324850092380249
0.002098647800202085 0.3234482204540883 0.14595340475299437 0.07581035429347528 -0.13424094554959673 -0.12602270640307386 0.038055070943701634 -0.03384605450621942
0.14573505001935913 0.1578851764440304 0.16579989464038788 -0.015228617558066931 -0.2913250527021741 -0.2197307820179382 -0.14739705382760349 -0.09794200703399754
-0.05253142306453335 0.20555067953319694 -0.13188477723528175 -0.14004685704743208 0.06680987289898874 0.09588142823426034 0.0718396920674397 -0.1291981096976484
-0.09284622734805975 0.1784615399804499 -0.2560967995640096 -0.30267034021215244 0.3071475325391929 -0.12983011783355816 0.0939285064290147 0.009487373341178927
-0.001581030895970152 0.024940619039693357 -0.23787552868120768 -0.18064071652771244 0.2552374911294742 0.2045640764278682 0.1812869409951846 0.17836708051922445
0.06821816824931036 0.04132422058432346 -0.07152711596328008 -0.005691991033279211 0.08489253281186843 -0.3965652012976596 0.0249215244601598 -0.04921453559522925
0.059350206209528286 -0.07726105908505122 0.0789630355395977 0.008796803813977842 -0.217148413030602 -0.04217720774540438 0.06899936689960408 -0.18359132276550535
-0.21913488150327873 -0.16997767740862146 -0.2676878569953513 -0.14105371138610673 0.0882458735579447 -0.04403204927972525 0.09807576821727225 0.021932556490771835
0.09562371040620544 0.1956882084293385 0.11640509684683313 -0.24653328908614947 -0.24418706902101886 -0.04144312326099207 -0.09313386728265632 0.19462135267497946
-0.22980431457887127 -0.08655490526166451 -0.1799859558894126 0.13329103765749467 0.22604266331973175 -0.10717627640942846 -0.306531113803629 0.0659288879182724
-0.23170980471137087 -0.15677669014995066 -0.14099863541541588 -0.15756923055954483 -0.17500946213488425 0.16119853610181664 -0.23277686997837882 -0.09605059158737157
0.08731750120774268 0.21492834038986713 0.03062284565332021 -0.05867557387480746 0.045725492133371064 -0.2015016888941605 0.2085171773293115 0.2090095193556913
-0.23380289156348247 0.07733623564287498 -0.008419876556786918 -0.04440704288372186 0.002447839409569772 0.32057882617884204 0.19894895214550054 0.026920474953732912
-0.08591393561229718 -0.15339921958759678 0.20489000063275029 0.08911307839636236 -0.2638868091030542 -0.1967860865252972 0.22045361361014934 -0.011112347433209024
-0.09860814254136227 -0.3463805868629129 0.2643233381629348 -0.14486527071290395 0.22731538860165476 0.20011593804544314 -0.15136088872204767 0.21090573498472012

layer1.0.bias f8 [24]
00000000: be9e 2015 f3a0 a4bf b8e9 0d29 e8d5 c1bf
00000010: 7340 812b 17c5 c8bf b6c1 7589 0737 d63f
00000020: 7053 e085 3f10 b4bf ea9b 9e4b 2080 c23f
00000030: c6e1 871a 7641 c03f c4f9 03cc fbc2 d73f
00000040: a914 9676 d5bf d23f 3282 6817 341b be3f
00000050: d17f 84e4 e0fc 933f dfe3 5f6a cc89 cebf
00000060: 9e45 7b6c 5d5a cfbf a7c1 4612 3032 c53f
00000070: d632 7077 c765 cbbf 1ded bf3c 5cf7 b73f
00000080: 8006 776a 991a ce3f cdbd 6ded 583a c73f
00000090: dbb4 5c8b 9d1d b03f 27b2 8b11 fc68 acbf
000000a0: 5617 d6ec 8353 823f 0071 4099 5a3d a0bf
000000b0: 3562 fd03 008a c2bf a29e df5c 617f 6dbf
-0.040290447548895866 -0.1393404198132211 -0.1935147249628276 0.34710873054339275 -0.0783729268881197 0.14453509991037033 0.12699772162865325 0.37127585338012303
0.29295860844315286 0.11760259219637062 0.01951934237251846 -0.23858027643271293 -0.2449452190108276 0.16559410946275685 -0.21404355365702682 0.09361816867015134
0.23518674562915365 0.18146812051007402 0.06295189525981774 -0.055488469259078514 0.008948355355424969 -0.03171809311626994 -0.14483642763913598 -0.0036007787339150258

layer1.2.weight f8 [24]
00000000: 8837 40ca 4865 ee3f cbb9 fd6c ec02 ed3f
00000010: 92df 1aad b716 ec3f a2f4 f6f3 bc0f ec3f
00000020: 12c5 9737 c437 ef3f aabd 34d9 f963 f03f
00000030: c28c 7172 6d74 ea3f 1a86 4d6a 378a f13f
00000040: b98d 1fbd c345 f03f 0159 c02c b6f3 f13f
00000050: 5097 4bc3 d12c ee3f 4296 5edf 6e2c f13f
00000060: 69a8 933f 9549 f23f a33a 0ae8 599b ef3f
00000070: d65c 7a43 1f5a ed3f a8e0 7b67 874c f03f
00000080: b5dd f8a9 9e43 f23f feac 8077 ffc5 ef3f
00000090: a681 9250 d346 ee3f db8a 71f8 6d60 ec3f
000000a0: c906 0705 544f ed3f 81c3 bdcc b549 ee3f
000000b0: b608 aaaf 6dca ec3f 10ac 1843 2a4a f03f
0.9498638105594504 0.9066068772061099 0.8777731305080911 0.8769211544928519 0.9755574308202617 1.0244081959352607 0.8267123446679749 1.0962442543462942
1.017032374155731 1.121999907312386 0.9429711164818659 1.0733479237909624 1.1429645999401379 0.9877137691526808 0.9172512357644347 1.0186838190402714
1.1415087356125302 0.9929196676288539 0.9461456845929674 0.8867711880123709 0.9159336183731394 0.9464978216984578 0.8997105055753056 1.0181067105247656

layer1.2.bias f8 [24]
00000000: 200a 3588 46dd a4bf 3241 bb82 ff90 8dbf
00000010: 5a09 bc19 d5df 8f3f 1705 8b19 dcdf a9bf
00000020: 4b53 383c 134e 97bf fb75 61da d94e a4bf
00000030: 46bb 5927 679c 82bf 37c2 0ab2 927f a73f
00000040: 0f04 0d9b 4111 6e3f d688 a31d 48ae 8d3f
00000050: 8105 3e04 e25f aa3f 2490 e8ec 81c3 813f
00000060: 95fb 02a5 1080 a0bf 6190 f112 f337 7b3f
00000070: 7e14 cb46 5f57 b33f e04d d1e0 d93b 893f
00000080: 47c9 212d ef39 b03f fb46 0d17 9b8e 9b3f
00000090: c0f1 79ac 4fa6 823f ed22 699b 6964 9b3f
000000a0: c8a0 ab09 8b4f 943f 6c03 6c9d 29ee 91bf
000000b0: 694f 2d59 5b35 9dbf be33 2519 991b 963f
-0.04075069821057675 -0.014436718155963566 0.015563645217757372 -0.05053603946499601 -0.022758770514047993 -0.03966408530025586 -0.009087377441770916 0.04589517997135711
0.003670337806767516 0.014492572216515159 0.05151277829919377 0.008673682253238786 -0.0322270585470427 0.006645154483610667 0.07555194357253645 0.012321188138378625
0.06338400699477119 0.0269111855334989 0.009106275988636336 0.026750230894580552 0.01983468290828297 -0.017510080559989857 -0.028523852651530932 0.02158965316748484

layer1.2.running_mean f8 [24]
00000000: 61f5 a6be 3495 c03f 2607 f226 a18f c23f
00000010: 57f6 a181 4a7b b23f d510 9baa 0ea6 d13f
00000020: b2d1 2c1c baf8 bf3f c1fa d948 b97b d43f
00000030: 1eed e9c3 b25b b93f 86b1 cb9d 2489 d43f
00000040: c837 de59 724b d03f d1f0 9e43 145b d43f
00000050: ad21 454c bc13 b53f 0039 6d0a 75df b33f
00000060: fd67 1a1a 1dbe a73f fc4e 8279 6c5b d13f
00000070: 9acc 78c0 71d0 a83f fede 675c 9369 d23f
00000080: 34e4 1ceb 287b d83f 7f28 0bb5 3ee5 cd3f
00000090: 820a 1c1e d3f1 d13f 5075 feae 440b b03f
000000a0: c8d5 7130 7e72 c13f 0675 894b 0e8b cb3f
000000b0: 9393 9263 c8fe d43f 8c99 14f7 96df d43f
0.129553406803022 0.14500822450286782 0.07219377198085773 0.275760332686571 0.124889022711449 0.320051499504114 0.09905545504618771 0.32087054643377433
0.2546049001329007 0.3180590305671674 0.08233239042340897 0.07762843613202008 0.04637232726709326 0.2712050615893842 0.04846530413160473 0.2876938249969355
0.38251707992782547 0.23355850067156678 0.2803848070181304 0.06267194053949265 0.13630654683554 0.2151811474640583 0.32805070613749726 0.3261468327422328

layer1.2.running_var f8 [24]
00000000: b5d2 8f6e de5e a33f 6078 6759 23f4 b03f
00000010: 8789 cd56 aafc 993f 1896 c92e bf87 c13f
00000020: d68a d06a 95d7 b03f 4673 c054 785f c23f
00000030: ea61 1c4b 4f5d 9f3f 430c 081e eb01 b63f
00000040: 8927 0761 7854 b93f 9c87 40a0 c72f c73f
00000050: aadb 9e5e 58ed 9e3f 29ce af26 a5a8 a63f
00000060: 437c 1b0b 3d5b 913f 77d6 160b 719f b83f
00000070: 908e 9323 986e 923f 14b6 9071 50a3 bc3f
00000080: 6663 27ec 273e b63f 8eb3 13cb 7764 b23f
00000090: 4cd9 b6d0 8af4 b73f 41ac d49f 541c 963f
000000a0: 2cb8 9a27 446b ac3f a4a4 471e ee21 b53f
000000b0: 61d3 5e2e a291 c03f afdd d659 b16b c23f
0.03783316707259613 0.06622525150985004 0.025377904460933045 0.13695516380828177 0.0657895456102254 0.14353851450223426 0.030629385909465436 0.08596677287282355
0.0989451634297024 0.18114562344368046 0.03020227506177845 0.0442554101681732 0.016949609568538426 0.09618288536770501 0.018000008746538898 0.11186697743024637
0.08688592448687657 0.07184551914151724 0.09357516856730291 0.02159244752435208 0.05550587638332191 0.0825489829945974 0.12944438232593838 0.14391152273831895

layer2.0.weight f8 [48, 24]
00000000: 5bae 5e54 6c50 95bf 33e6 4143 da76 c0bf
00000010: 5b68 0cb8 8d2f b7bf 42a8 54f2 16a9 bc3f
00000020: c851 e728 6e4b cbbf 3af9 8741 b8bd a7bf
00000030: ec35 4831 3193 b0bf 53fc 2b2c 123f bb3f
00000040: d64a 8297 88c7 bf3f b66b e2fd f370 c4bf
00000050: cbc0 05ac d3d3 ad3f c9e0 1b9d 8624 c33f
00000060: d6dc 5242 6eae c7bf 802d 4106 5e61 b23f
00000070: e452 9659 6f0a c2bf 159b 1c1c c4ba a03f
00000080: 54d7 89f1 fd3c b5bf db90 b4b0 5b4b b93f
00000090: 6f0d cc7e f718 ae3f 64ec b828 a922 b0bf
000000a0: 2055 372f 0ac9 acbf 35bc 8419 e66a b9bf
000000b0: 750a 7f78 c69b 67bf 7c44 e776 51cc b93f
000000c0: 1e5b 4505 4d54 c63f 6187 9e19 9e5f c23f
000000d0: 5b85 2f19 9ffe 93bf a8e6 8293 145f b9bf
000000e0: b3f0 686e ec8d acbf 3fbd a644 f315 9e3f
000000f0: 765f b095 f5db a53f 661d 40ba 60cf b83f
00000100: 6731 6d08 385f 943f 5f4b 40f3 64af c4bf
00000110: 9254 4548 8ca5 c33f 1f03 dc93 e135 b6bf
00000120: 9825 a8ef e246 b03f a751 f595 0f30 b8bf
00000130: 846a b847 3bc2 c63f 684d d0e8 b22a c33f
00000140: b7a5 9b50 ad9d afbf b11f 25ac 7c63 bfbf
00000150: 9d80 031e 6ec8 a53f d8f7 0b47 8095 a33f
00000160: 2498 ed77 72b8 a5bf 62fb f9ce c5bc bb3f
00000170: ace1 1086 6f30 973f 25ff 2734 c4c2 cebf
00000180: 8c11 dfb2 166a a13f 9907 57bd c1da be3f
00000190: 5683 6d0e 8e9c ba3f d5be 5a98 691a c2bf
000001a0: 2536 80e1 b8f0 c13f 2f8a 6872 16cf ce3f
000001b0: 9bb3 1893 099e b33f f04e c35b 757f b03f
000001c0: 68e2 5b78 492d af3f 57a1 4f9a 379e bf3f
000001d0: 2720 7161 6cd6 be3f fa0c 6fed 4b43 b5bf
000001e0: 14f5 9944 da58 af3f 2d81 9a09 4533 be3f
000001f0: fe37 cc2f 6551 b4bf 13d4 2c47 7fef bd3f
00000200: c5ed 5541 6585 ad3f 9664 9b16 08fa cbbf
00000210: dbad d35a 6576 b6bf a759 9190 5bc2 a63f
00000220: 3e6d a053 d8f0 c63f 5c20 084e 5373 c93f
00000230: fb3b f26b 20b8 c5bf 2a7b 4439 b952 cfbf
00000240: 09d9 d79a 84b8 c5bf 5729 c388 b3b7 bf3f
00000250: ed14 cbfb 159e b43f 17e3 39b6 9e1c c3bf
00000260: f175 d78f 8c0e c8bf 300c c9ca b8b2 acbf
00000270: 4cda e12a 6039 803f 3174 e580 9a2a c4bf
00000280: b070 d0c4 8d1c b73f 6720 79c3 6d8c cbbf
00000290: f171 a541 da88 8d3f 1bb6 bd73 73e4 823f
000002a0: 1364 b9cd 43f6 c53f 4758 5dba 643d c33f
000002b0: e937 d59c 388d c13f c5c7 4452 af81 c1bf
000002c0: a493 274e 4e7a c5bf 53c1 01aa 505a c13f
000002d0: 1f8f c2b9 f452 c33f a877 1c0f 8c45 abbf
000002e0: 1632 67cd 2f0b c73f e5ae 06be 09ed c53f
000002f0: 02be 9093 f122 b23f 9df2 0fbb 606e 89bf
00000300: d521 52a7 7425 b1bf f911 786c aa21 ba3f
00000310: 6e64 3824 613c a9bf c95e 4cb7 47b9 b83f
00000320: e659 289c ffc5 94bf 7eb3 32a2 44af b2bf
00000330: 00a3 5736 9bc4 c83f 9156 9a68 0a0b a73f
00000340: 9a3f 6bd3 cb25 b9bf 5ed7 3ce0 8822 c4bf
00000350: 4af8 f1d9 3fad 81bf 7d12 bab4 5af9 c4bf
00000360: 2fd9 1a32 c32b a7bf 52a8 8dc2 413f b63f
00000370: 768e 1935 1c5a b9bf c5ea 71fb 8b7c bdbf
00000380: b685 0c3e 57e4 bb3f 3975 cde1 9413 b83f
00000390: 1309 ac4d 040b a9bf fa66 ce55 eac1 c43f
000003a0: 13cb 4eb0 ba2e c23f 1dc5 b214 2e9b b03f
000003b0: dc76 832f bc86 b6bf a425 5cae cc6f c33f
000003c0: b353 4bdd 1196 bf3f a64f 6ddc a545 be3f
000003d0: 41e5 686a 1d41 c23f 1ab7 7535 1756 cbbf
000003e0: f4cf 43aa e87a c23f 82d3 1bc4 5919 9cbf
000003f0: a87c 2132 6c55 bfbf a319 7b23 0e63 bdbf
00000400: 10f4 a764 431d aabf e8f3 912c 0398 c9bf
00000410: a8be 2cb2 0d78 bf3f 6a1a 060e 843d c13f
00000420: 238e 3833 bf1c c2bf 1bfb b8ca 1070 c13f
00000430: d508 8dc5 f47f a23f 8fcb e92e 9117 9abf
00000440: 6db3 3b2e da22 c8bf 3ca6 d03c e19c b2bf
00000450: 3d66 0ef1 7655 c43f 67fb eb26 a3e5 b13f
00000460: 7e6b 3d3f b5c8 b7bf f167 dcad e0ec c6bf
00000470: 6fad 9232 a66c 9d3f a9df 54f5 1e05 c23f
00000480: 9fe2 9c99 f537 bcbf 4298 e9ab 1eab 453f
00000490: 3a9c ee1a 0ef3 ba3f afb3 20b5 468b 4dbf
000004a0: 9c31 83d4 04c1 413f 6a35 3ebb 676e b23f
000004b0: 34e4 f978 98eb a13f 8d2f 755a 5f04 9abf
000004c0: 2fe6 de42 2b96 ccbf 2d3f c2bd 8f5c 9c3f
000004d0: c5ea 4fe8 2933 b33f d7ce c16a 3958 a13f
000004e0: 2d21 78cb a766 743f 2b4a 0e9a 59b6 c83f
000004f0: b680 c6bc 69f2 b4bf 9271 2def 316f c13f
00000500: a8c1 c25a 0da0 c63f 1630 88f0 8e98 c03f
00000510: 8ad8 31a5 f5c4 c7bf 3d44 3f60 1421 bc3f
00000520: 8689 3f02 4c92 cbbf 5ba3 ba84 2c7f c0bf
00000530: de22 1ab7 5831 8b3f 3aa2 1729 4b2a 98bf
00000540: 82ec 7b79 e1c5 c4bf f270 158b 7e9b c33f
00000550: cf09 c8f5 2ec9 b83f c18c 7099 31d5 babf
00000560: fdf6 de88 dfd7 c1bf 06c4 bf29 6051 ac3f
00000570: 1eda e356 289e b73f d29b 0673 20c0 bfbf
00000580: c7a9 17d0 d89f c7bf f6be 67c0 84d9 a53f
00000590: 536b 905b 2d27 bebf c432 5f7c f200 b23f
000005a0: 07f5 9388 bee8 a5bf 44cc 281b 591f c33f
000005b0: c12f 2a82 3986 c4bf a00b 6af3 c35d c4bf
000005c0: 5dbc 4e53 1b30 6d3f 697a b025 9a9e c6bf
000005d0: e386 34e6 5f48 b1bf 0da6 4429 3f4e b6bf
000005e0: 9397 98ec aede c63f 939d bd03 b823 b0bf
000005f0: 8ad8 e324 3e23 c53f 4806 d93f 96d9 bf3f
00000600: e715 f1e4 5db6 95bf fd00 9bbd e11e aebf
00000610: 8661 0cb2 c402 5bbf c194 eab9 f38d a7bf
00000620: 8d0a 9b65 ea7a a13f b0b9 7353 dfab b3bf
00000630: 31d4 89bc 1e1e 95bf 4869 34a5 58bb bc3f
00000640: c10b 4b35 33ab b33f 29ad f5ea ffa8 cbbf
00000650: d605 0c31 d7d3 713f 5a1c 5866 3cae 93bf
00000660: 2e38 42d2 7970 bf3f c8ce 6b4d 7ef1 b5bf
00000670: b956 035d 73d3 833f 33cd 05a6 c457 ccbf
00000680: 748e 6107 abc2 c93f b305 e9fd d130 c53f
00000690: 8edd 3674 724b b8bf 32e5 f34f 8aff c83f
000006a0: 7264 8c24 3f09 af3f 6f9e 80f3 89a8 aa3f
000006b0: 4f75 886b d141 473f 8a29 bd80 c21c b1bf
000006c0: 868d 39e2 2a22 c4bf 30bb 210c f0a2 cabf
000006d0: ebcb d99d 4066 a93f 627f db7a 775e c2bf
000006e0: dc3f b149 2bc6 b03f 337d 29f9 9f55 a5bf
000006f0: f74f f64a 5fa1 c1bf 8655 0299 99a9 b8bf
00000700: 62f9 c4ec 77ad a23f 4a3f 2cae b756 aa3f
00000710: 0594 32f4 c334 b23f b0e5 bb4e 9725 cfbf
00000720: 468b 71de 0a79 b03f 93b0 a39f c1ed b7bf
00000730: c20a 106d 8533 a63f 7840 4059 393e cabf
00000740: d9a9 7a00 00d4 ca3f 25f8 1348 00a2 75bf
00000750: 4d36 90e2 ba96 b03f 149f 7286 f644 623f
00000760: 269b c847 8199 bc3f b748 3a3e 237a be3f
00000770: f25a e47c a1f1 c5bf 96c3 ed73 24a8 ca3f
00000780: 0e07 bd50 fe6d acbf 5346 cb00 0c3e bcbf
00000790: ea8c 33e9 7fdf a53f 3abb 38e9 38e8 c2bf
000007a0: 1cba 89f1 6b10 cfbf 24e8 d6b4 bf33 c0bf
000007b0: a8a6 9943 427e ad3f e82c 5a3e 6e6e c2bf
000007c0: 4dbf aef2 cdf4 be3f 2a95 29be ad10 a4bf
000007d0: 9918 e31d cf98 c33f 9e38 5cf0 4b03 c73f
000007e0: b1db 7e82 99a3 b63f a0af 573a 2962 ca3f
000007f0: c3ee 345c 8702 c53f 7009 f13a 52f4 b3bf
-0.020814602517630437 -0.1286270931630483 -0.09056936019297394 0.11195510307575865 -0.21323945042844472 -0.04636932182255511 -0.06474597409415822 0.10643113687909649
0.12413839053105433 -0.15969705483152347 0.058256735562169114 0.14955218001683182 -0.1850107024999718 0.07179820683193405 -0.1409434497296821 0.032674911910637906
-0.08296191355642907 0.09880612434477902 0.05878423140350263 -0.06302888149450464 -0.05622131182068757 -0.09928739665041138 -0.002881896627486664 0.10077389862932934
0.17444765813225954 0.14354301691951846 -0.0195259913560951 -0.09910706139899139 -0.05577029083039644 0.029380608620781287 0.042693781397416794 0.09691433474664776
0.019894481195750126 -0.16160261037347376 0.15348962334488597 -0.0867596612915915 0.06358164168354674 -0.09448335085955382 0.17780247690173578 0.1497405659471085
-0.061749855127185276 -0.12261180117377425 0.042544785655765006 0.038249977753352205 -0.04242284501997087 0.10834919264924062 0.022645704801307495 -0.2403187994641424
0.03401251729477214 0.12052546379621133 0.10395133831253864 -0.1414310449522335 0.14015875826628235 0.24069481455178862 0.07663020936224856 0.0644448613195967
0.06089238733506336 0.12350795285568004 0.1204593408484703 -0.08305811449740821 0.06122476661128409 0.1179698131986739 -0.07936699311196091 0.11693568694757088
0.057658352113289214 -0.2185678587327728 -0.08774407832577628 0.044451581380303744 0.17922500689824433 0.19883195219176997 -0.169681599338645 -0.24471202179207668
-0.1696935421056838 0.12389680947231817 0.08053719899460861 -0.14931091211089928 -0.18794400237577194 -0.05605103946120271 0.007921935375844978 -0.15755015653385976
0.09027944617304473 -0.21522304577434 0.014421181801190537 0.009224798173558082 0.1715779070389379 0.15031107997737278 0.13712222726684267 -0.13677016751313267
-0.167794979249405 0.13556869794002555 0.15096911497413942 -0.05326497730696583 0.18002889184425958 0.17129632738703218 0.07084569790526277 -0.01241756029957602
-0.0669777782915227 0.10207619808358705 -0.04928878371374244 0.09657715058380768 -0.02028655424700245 -0.07298687896645892 0.19349994805750015 0.04500610854044596
-0.0982329741630096 -0.1573039145384269 -0.008631228293094168 -0.16385968994667968 -0.04525575625068467 0.08690272331082952 -0.09903122230894632 -0.1151816834334723
0.10895295395723434 0.09404879105337195 -0.048912176591345745 0.1621678275085328 0.14205106362131711 0.06486785893755039 -0.0879933944701991 0.15184935105962183
0.12338363316241789 0.11825024253385993 0.14261214919842227 -0.21356477842658067 0.1443758803721945 -0.027440455050015362 -0.12239719604393662 -0.11479271284324581
-0.05100451091491476 -0.19995155025745182 0.12292562103243176 0.13468981442220535 -0.1415022850134032 0.1362324704986911 0.03613247787008481 -0.025480526436193748
-0.18856360681038656 -0.07270629629842856 0.15885817308735453 0.06991023731459976 -0.09290631097739596 -0.1791039322786783 0.02873477634117932 0.14078127841071122
-0.11022887230218224 0.0006612682116837814 0.10527122647782586 -0.0009016127826321131 0.0005418084702113915 0.07199714967119566 0.03500057675132276 -0.02540730466471035
-0.22333279385729685 0.027696844059902737 0.07499944612201677 0.03387622287928387 0.004980712364620649 0.1930648805833511 -0.08182392939352465 0.13620590380277214
0.17675940448453997 0.1296557116005494 -0.18569822851322143 0.1098797545412404 -0.21540212735915193 -0.1288810394373979 0.013277714813072657 -0.023598837264133567
-0.16228884155120588 0.15318280974577864 0.09681981564066365 -0.10481557842335844 -0.1394004267039505 0.055308346840213615 0.09225704308833158 -0.12402537163016739
-0.18456564102900883 0.04267515991875641 -0.1177852963013895 0.07032695328161781 -0.04279132287227055 0.14939416719571075 -0.1603462110109586 -0.1591114939256757
0.003562978143655067 -0.17671515312482036 -0.06751059885257464 -0.08713145024798781 0.17867075493375903 -0.06304502574277242 0.1651380233885827 0.12441386278899202
-0.021203486536497975 -0.05882935943145815 -0.0016486092428689993 -0.04600488323675612 0.03414089670470331 -0.07684131419566742 -0.020622711427183475 0.1122336772281517
0.07683105517484902 -0.21609496090545946 0.004352417556903151 -0.01921934485110586 0.12280999549167923 -0.08571614637531433 0.00968065383532789 -0.22142847162795362
0.20125329838184636 0.16555237672768683 -0.09490123116744639 0.19529847053471766 0.060617421351886316 0.052067099546829414 0.0007097504195063084 -0.06684508936920089
-0.15729270979055004 -0.20809746353503433 0.049608248967068246 -0.14350789545914738 0.06552382039194476 -0.04166889111069807 -0.13773718986760716 -0.09633789048742444
0.03647970929385981 0.051442852031071754 0.07111763679365886 -0.24333468765671062 0.06434696131468085 -0.09347162387320145 0.04336182552653646 -0.20502392633398236
0.20959472678562355 -0.005281449413130833 0.06479995757418884 0.0022301497407005797 0.11171730043916436 0.11905117291670107 -0.1714364871811181 0.20825629864296208
-0.05552668319297825 -0.11032176036248957 0.0427207920236244 -0.14771186244748852 -0.2426886491188761 -0.1265792496686241 0.057603903533914036 -0.14399507565062852
0.12092291998737643 -0.03918974825209383 0.15310086211519972 0.17978810535754958 0.08843383251119864 0.20612063740497621 0.16413967134746174 -0.07794679583552067

layer2.0.bias f8 [48]
00000000: cb6d c163 c84f 773f 38e1 ed38 c61b bbbf
00000010: bc72 1454 e25a c03f 34d1 68ad d6a6 cb3f
00000020: 1034 f43b e8b5 953f 71d2 78e6 18c5 b43f
00000030: d27a 5265 4f6e 913f 77dc 3f53 b239 c63f
00000040: 660d a02b 982b be3f a310 ef39 80f7 c6bf
00000050: 8c9a 69b9 47c1 b43f 215d ecae 4b59 c93f
00000060: 1a0b 9921 cba6 cc3f 7c6b 01c9 90a5 c0bf
00000070: f9bc 7079 3204 743f e527 14ae fb99 b53f
00000080: b0f0 6f95 dac6 c5bf bc82 4f10 0c59 c03f
00000090: 866f 2bb2 5939 cabf 542b efdb c980 c4bf
000000a0: 897b 7311 d4ef a13f f614 9504 c28b a63f
000000b0: 952f f83c 7e7a be3f efd3 f60e 3ed0 c2bf
000000c0: f919 468f e6fb bbbf 6b33 f7d9 2ced af3f
000000d0: 555c 2c6b 1c1d c4bf f6e0 0c9f 1f7a b63f
000000e0: cc4d cbcc 4bc4 9cbf c839 751d c489 aa3f
000000f0: 8d89 3c0e dff0 b2bf 8b75 e3e1 25a0 ad3f
00000100: 22b1 e5bf 66e5 b4bf 3a40 de11 cc36 b43f
00000110: cadb e3c6 2d48 b03f 48b1 b5f0 e26a c03f
00000120: ff50 0681 55d2 88bf 0892 1bfc 6074 c13f
00000130: 7ee7 8add 5605 a93f 103f e88f abbc 95bf
00000140: e2e1 3068 90da b43f ed05 8517 6dc8 ca3f
00000150: 2f76 9b3c 9569 c43f 54cf bc2a 9751 bdbf
00000160: 6d34 6710 fb26 cb3f 02ef ed5b bf43 acbf
00000170: 9ec1 fae6 8b5a bebf ca58 0430 0581 bc3f
0.0056913211556905525 -0.10589255227921945 0.12777356248343164 0.21602900950677795 0.02120173326425251 0.08113246561772215 0.017022362288680544 0.17363575997271471
0.11785269799297779 -0.17942812756348755 0.08107422138855663 0.19803758660484852 0.22384013309973555 -0.13005266012882177 0.004886815228970714 0.08438084602326475
-0.1701310376810219 0.1277175025598093 -0.20487519454661313 -0.16018031348206796 0.0350328704168908 0.04403501802384284 0.11905659664642905 -0.14698005419418744
-0.10931244848152478 0.06235637818063008 -0.15713839753218176 0.08780095704139854 -0.02809256017174082 0.05183232173532165 -0.07398790452547228 0.0578624571078122
-0.08162538704863612 0.07896113811716612 0.06360136132921848 0.12826191666989417 -0.012119930267353583 0.1363641005510916 0.04886886076333406 -0.021227532061003862
0.08146002334331784 0.20924152038973834 0.1594721361097284 -0.1145262221660322 0.21212709713873626 -0.05520437237916377 -0.11856912984035836 0.1113436929921107

layer2.2.weight f8 [48]
00000000: 4735 e045 e839 f03f 85fe ee09 2ef5 ef3f
00000010: f23f 1e85 8515 f03f 2be1 b76d a808 ef3f
00000020: 71ce 3a25 3826 f03f 6c1a 4f44 268b ee3f
00000030: 0488 9466 dd49 f03f 9e53 b0a3 2245 f03f
00000040: b9ed 7aac ff0e f03f 335d e6c6 dbe3 ee3f
00000050: 03d5 7485 ba8c ed3f 17b6 a213 fbb7 ee3f
00000060: f901 eb66 ef4f ef3f dfa2 3c18 f743 ef3f
00000070: b55f 5ea5 2079 ef3f c457 0ac9 ec71 ee3f
00000080: 4589 3a7c b835 ed3f 345f 2ccf 460e ee3f
00000090: e571 c780 6acd ef3f 169d 2407 cddf f03f
000000a0: 772b cadc 4abc ee3f 8cfb 2436 5c91 ef3f
000000b0: dd04 2c30 a15c ed3f e643 b36a b316 f03f
000000c0: edcd 5f21 3e43 f03f 993a d306 0356 f13f
000000d0: cd13 624f b965 f03f 26af 7377 2208 f03f
000000e0: 81c8 f683 9c01 f03f 8440 cfe1 9f62 ef3f
000000f0: f473 3e43 5929 f13f 7d6b 43e7 ea40 ef3f
00000100: dd21 ae63 3424 ef3f c1c4 b38b 516a ee3f
00000110: 71e2 f234 402a ef3f 939b 977e aa30 ef3f
00000120: a5eb 2207 da72 ef3f ab36 7616 361f ef3f
00000130: a53d 5044 d066 f03f 1326 80e0 8987 ed3f
00000140: 1d83 67c0 a58b f03f 8861 f556 b73d f03f
00000150: e12b 7ad4 3621 f23f 9b0d edbe 8818 f03f
00000160: a0af 2c89 f3a8 f03f e026 3704 2a0f f13f
00000170: 870f 241d 6331 f03f 85ca c8bb 0877 f03f
1.0141375283740943 0.9986791795744955 1.005254287712884 0.9698068755087993 1.0093308882032057 0.9544860204849335 1.0180334097899513 1.0168787378399666
1.0036617982394616 0.9653147587550052 0.9234287840432959 0.9599585898883473 0.9785077104680219 0.9770465348602463 0.9835360746246723 0.951406853348765
0.9128076959935149 0.9392427488664681 0.9938251986710013 1.0546388892196936 0.9604849159526186 0.9864941651829766 0.9175573292597182 1.0055421989420608
1.0164166740113345 1.083498980198476 1.024834928598682 1.0019859949197296 1.000393405422557 0.9807891283362697 1.07259489314242 0.9766745106565932
0.9731695124510754 0.9504783371504787 0.9739075693278904 0.9746906731132746 0.9827699794180843 0.972559970732353 1.02510096249521 0.922795237043092
1.0340936198992445 1.0150674244706313 1.133108930577457 1.0059897859617652 1.041247878873925 1.0662021794000154 1.0120574129404944 1.029061063320712

layer2.2.bias f8 [48]
00000000: 9db0 7140 f05b a23f 29a4 8af9 46e5 9e3f
00000010: 2e56 f5b0 a80e 923f 8c3d 808b 4c2a a7bf
00000020: f14c 7fe3 4725 863f d420 6c99 8292 703f
00000030: 453a dce5 1e79 a43f 4316 2a9f a385 a33f
00000040: 04c7 7ce5 7c4e 723f ce55 29de a683 6abf
00000050: e9ca 1110 faf3 96bf 260d 4488 6f7f 2d3f
00000060: 9eea f7b0 8528 47bf 440f 3a4f 803c 883f
00000070: 7fe3 cb84 e21b afbf 3ee8 9175 6706 983f
00000080: df47 9545 add2 b5bf 462d 7b32 9c09 863f
00000090: 3518 725d 242f 92bf cac7 0d11 89b9 98bf
000000a0: ea91 f39b bab0 b23f 4172 a653 1aab 803f
000000b0: 9799 6a33 93b2 a4bf 24be 1243 46da a3bf
000000c0: 3c60 bbb0 6442 a9bf a250 edc5 bee9 54bf
000000d0: d5c3 9a2b 5635 95bf 982b 59d4 26b3 a5bf
000000e0: f28a fb57 2eab 9ebf 4474 2b57 7510 b1bf
000000f0: 6fad b797 dee8 abbf f5cd 1365 833e 993f
00000100: f070 4f1e 4ce3 94bf 092f bbd5 4da9 84bf
00000110: 91a7 c642 81b7 93bf 3a91 2851 b3f4 663f
00000120: e1bb 3ab7 4fcf 923f 25cf 1cdc fada 5cbf
00000130: fd3f 4945 fb64 a5bf 214c 1135 c09e 833f
00000140: d9cf 5f44 a892 9b3f 2246 b4c3 dd75 aabf
00000150: 643d aab7 a749 953f 530a 949d 6820 97bf
00000160: bc82 1b23 bc73 84bf b115 8ac2 11ee 96bf
00000170: 4d0e 306e 18c5 a4bf da37 f949 0cef 793f
0.03585768496199757 0.030171498280342633 0.01763404445713073 -0.04524459078686069 0.010813295011678355 0.004045972970523521 0.039986577567209504 0.03812896078038055
0.004469383122158058 -0.0032366046082567884 -0.022415072661213484 0.00022505032041673332 -0.0007067349233119307 0.011834146898088378 -0.06075961943674368 0.0234619298466685
-0.0852459235077556 0.010760517397463542 -0.017757957652541918 -0.024145261445887724 0.07300916964920359 0.00813885276584714 -0.040424919153610954 -0.03877467697872941
-0.04933466584560661 -0.0012764323252741146 -0.020711275493059695 -0.04238244382994266 -0.029949878807097492 -0.06665738466422605 -0.05451102830906051 0.024652531666061923
-0.020398320531840264 -0.01008854683404749 -0.019254703236277818 0.0028022291455888334 0.01836895519107518 -0.0017611932566525348 -0.04178605290201174 0.009580136889928483
0.026926640675767863 -0.05168049825637079 0.020788784585019995 -0.022584566705527397 -0.009986371823687328 -0.022392537592642096 -0.04056621880593223 0.0063314895665609

layer2.2.running_mean f8 [48]
00000000: 3a84 b308 4ec9 cd3f f32d a750 9cf6 ce3f
00000010: 9b1e 422e d1a5 da3f 8131 dacc 3805 d43f
00000020: 2e11 aa2f 2dd0 cf3f 59e9 dad3 fa16 cf3f
00000030: 8f9e 7699 ca12 c93f 776f 55d0 f092 d63f
00000040: 6a01 2b93 a3cc d33f 454f 6f8f 85dd c33f
00000050: e8c9 0049 f5de cd3f cc2e b47b 83ab d53f
00000060: 35f5 9b4b 84ae d73f 2bfa 0537 cc16 c33f
00000070: 3899 07ce 24a4 d13f d73a 5030 f026 d03f
00000080: 0057 9748 b6f1 bc3f 125c 6bb0 9b1b d03f
00000090: d442 45d2 e65f be3f 369e 200d c842 bb3f
000000a0: bc51 e28c f43a cd3f 8a4d 18ff c172 c93f
000000b0: 2206 8817 530a d23f ed8a c628 9fc7 c23f
000000c0: 512e f2a7 1f60 d13f 869e 74d9 9444 da3f
000000d0: 9b23 e997 614b be3f e1c5 d179 9065 d73f
000000e0: 46c1 8421 30e8 c43f ff8c 471e c50f d23f
000000f0: 72aa 231e 31b2 d33f 5343 52c5 582f d13f
00000100: 14d8 4b93 03d2 cd3f 90ad 0f59 b9bb d13f
00000110: 0d7c bc8b a138 ce3f ffe9 0ce0 7238 d43f
00000120: 0e15 7a36 998f cd3f 8b36 1455 e32e d53f
00000130: e775 fc56 7cb3 ce3f fada b1bb a2fa ca3f
00000140: 3ef3 c102 8676 d53f c540 3e9e 1b4f d03f
00000150: 7f92 7b5a 0194 d83f 8ff6 b686 0345 c23f
00000160: 9168 68b0 c0b1 d13f 5459 9588 6b4a c23f
00000170: 608f fca8 f4f6 c03f 1edd b979 9007 d63f
0.2327058355795389 0.24190095842492063 0.4163706733456622 0.3128187180052678 0.24854054286346056 0.24288878769386704 0.1958859681446836 0.3527185472973921
0.3093651711642652 0.1551978063931704 0.23336664261439855 0.3385933597607902 0.3700266588565058 0.14913323103606166 0.27564354057394125 0.2523766013918424
0.11306323311086075 0.251685068401856 0.11865084298666356 0.10648775406354435 0.22836167220215298 0.19881463008696826 0.2818801622198369 0.1467169713115121
0.2714919223878712 0.410435879095964 0.11833772619969667 0.36557399650982175 0.1633358157792008 0.2822125240038104 0.30775096839230465 0.26851481694852913
0.23297161762428742 0.2770827646006291 0.23610324214038805 0.3159453571312553 0.2309447780609521 0.3309868174409096 0.23985246894237308 0.210773793838335
0.33535909909533135 0.25482836202082765 0.38403352581216404 0.14273113324991413 0.2764741633160464 0.14289611977683114 0.13253648997590073 0.3442116917353405

layer2.2.running_var f8 [48]
00000000: 9012 da81 50ea b13f f514 2873 d0a1 c13f
00000010: fc8e 17c7 2c00 d43f de02 e92b 0ff1 bd3f
00000020: 3a00 4b52 a271 bf3f 3f3c c187 1ed4 b63f
00000030: bbb7 5c0e b3f7 b43f 7a96 52e5 2e0e c93f
00000040: 48dc 6f03 8439 c63f 688a de6e 338e b03f
00000050: 53ba d2d0 bac2 b43f 55cc 9fb9 13a1 bc3f
00000060: c006 d93f 9bf5 c23f 5619 85e4 07c5 b03f
00000070: f8d5 993a 9aa0 ce3f eb5d f163 0ca3 be3f
00000080: 0dcd 0418 e2b3 a43f 42f6 d220 3da2 b13f
00000090: 57f3 d5e7 8b44 a83f f8d7 1b26 bf38 a83f
000000a0: 812b 6394 f21a b63f c0fa c5e0 6ab3 c13f
000000b0: a814 4ffb 1e84 bd3f c892 9fbf 3221 b13f
000000c0: d16e 8863 c36e c93f 86fc edcd 756f d33f
000000d0: 5f79 d2a7 2669 9e3f f9bb 1c65 ed2f c73f
000000e0: 8b74 ef93 760b a73f b3de 1560 113e c43f
000000f0: 4175 583c efbc c53f a8eb 13d3 46c0 bf3f
00000100: 148a 6a13 c577 c13f bdcd 6144 70a7 be3f
00000110: 9c73 660e fc10 b63f a952 a5bf 5ff7 c63f
00000120: 2281 c477 9c3a c03f 6b31 021b 7402 c83f
00000130: 520a 6faa e331 b73f 4d76 3521 c175 bc3f
00000140: 880e 6148 cff7 c23f ec78 d69c 94a6 c13f
00000150: 3c05 0ca3 6a33 c23f a3aa 33ce dff2 a53f
00000160: 20b3 efd3 1e06 c03f 6886 9d1e c22a bb3f
00000170: 84e2 2b5e 6897 ad3f bb84 5db8 8c2c d03f
0.06998160524569585 0.1377506792343081 0.31251067583637826 0.11695952245737426 0.1228276682768418 0.08917418302847667 0.08190459347380756 0.19574533650773046
0.17363023917980258 0.06466981369752889 0.08109634016248295 0.1118328407463179 0.14812031381193513 0.06550645188426549 0.2392761980187712 0.11967542114268041
0.040434899742104326 0.06888181735390567 0.047397968340169676 0.047307942773770095 0.08634868738879044 0.13828788733731834 0.11529725680800829 0.06691281488708534
0.1986927257538498 0.30367798910442223 0.029697994225551635 0.18115012585755588 0.045009332235829445 0.1581441611449371 0.16982832380828408 0.1240276589705177
0.13646758506827494 0.11974240941508803 0.0861966643482916 0.1794242559214088 0.12678867195155258 0.18757487601068176 0.09060500060062651 0.1111717897487889
0.14818755182396992 0.13789613397688727 0.14219410859372228 0.04286860839950648 0.12518678043797937 0.10612118956989891 0.05779577397874383 0.2527190971796462
